Stage1MAE model loaded with mean [0.485, 0.456, 0.406] and std [0.229, 0.224, 0.225], mask ratio 0.0
stage1 model: Stage1ModelWrapper(
  (stage_1_model): Stage1MAE(
    (model): ViTMAEForPreTraining(
      (vit): ViTMAEModel(
        (embeddings): ViTMAEEmbeddings(
          (patch_embeddings): ViTMAEPatchEmbeddings(
            (projection): Conv2d(3, 768, kernel_size=(16, 16), stride=(16, 16))
          )
        )
        (encoder): ViTMAEEncoder(
          (layer): ModuleList(
            (0-11): 12 x ViTMAELayer(
              (attention): ViTMAEAttention(
                (attention): ViTMAESelfAttention(
                  (query): Linear(in_features=768, out_features=768, bias=True)
                  (key): Linear(in_features=768, out_features=768, bias=True)
                  (value): Linear(in_features=768, out_features=768, bias=True)
                  (dropout): Dropout(p=0.0, inplace=False)
                )
                (output): ViTMAESelfOutput(
                  (dense): Linear(in_features=768, out_features=768, bias=True)
                  (dropout): Dropout(p=0.0, inplace=False)
                )
              )
              (intermediate): ViTMAEIntermediate(
                (dense): Linear(in_features=768, out_features=3072, bias=True)
                (intermediate_act_fn): GELUActivation()
              )
              (output): ViTMAEOutput(
                (dense): Linear(in_features=3072, out_features=768, bias=True)
                (dropout): Dropout(p=0.0, inplace=False)
              )
              (layernorm_before): LayerNorm((768,), eps=1e-12, elementwise_affine=True)
              (layernorm_after): LayerNorm((768,), eps=1e-12, elementwise_affine=True)
            )
          )
        )
        (layernorm): LayerNorm((768,), eps=1e-12, elementwise_affine=True)
      )
      (decoder): ViTMAEDecoder(
        (decoder_embed): Linear(in_features=768, out_features=512, bias=True)
        (decoder_layers): ModuleList(
          (0-7): 8 x ViTMAELayer(
            (attention): ViTMAEAttention(
              (attention): ViTMAESelfAttention(
                (query): Linear(in_features=512, out_features=512, bias=True)
                (key): Linear(in_features=512, out_features=512, bias=True)
                (value): Linear(in_features=512, out_features=512, bias=True)
                (dropout): Dropout(p=0.0, inplace=False)
              )
              (output): ViTMAESelfOutput(
                (dense): Linear(in_features=512, out_features=512, bias=True)
                (dropout): Dropout(p=0.0, inplace=False)
              )
            )
            (intermediate): ViTMAEIntermediate(
              (dense): Linear(in_features=512, out_features=2048, bias=True)
              (intermediate_act_fn): GELUActivation()
            )
            (output): ViTMAEOutput(
              (dense): Linear(in_features=2048, out_features=512, bias=True)
              (dropout): Dropout(p=0.0, inplace=False)
            )
            (layernorm_before): LayerNorm((512,), eps=1e-12, elementwise_affine=True)
            (layernorm_after): LayerNorm((512,), eps=1e-12, elementwise_affine=True)
          )
        )
        (decoder_norm): LayerNorm((512,), eps=1e-12, elementwise_affine=True)
        (decoder_pred): Linear(in_features=512, out_features=768, bias=True)
      )
    )
  )
  (connector): ReshapeAndSplit_connector()
)
image_mean: shape=torch.Size([1, 3, 1, 1])
image_std: shape=torch.Size([1, 3, 1, 1])
noise: shape=torch.Size([256])
default_id_restore: shape=torch.Size([256])
model.vit.embeddings.cls_token: shape=torch.Size([1, 1, 768])
model.vit.embeddings.position_embeddings: shape=torch.Size([1, 257, 768])
…
